(conda) abhishek@abhishek-sunny:~/Desktop/OrcaCNN-Demo/Method_2$ python model.py 
Using TensorFlow backend.
100%|██████████████████████████████████████| 4694/4694 [00:08<00:00, 561.20it/s]
_________________________________________________________________
Layer (type)                 Output Shape              Param #   
=================================================================
conv2d_1 (Conv2D)            (None, 9, 13, 16)         160       
_________________________________________________________________
conv2d_2 (Conv2D)            (None, 9, 13, 32)         4640      
_________________________________________________________________
conv2d_3 (Conv2D)            (None, 9, 13, 64)         18496     
_________________________________________________________________
max_pooling2d_1 (MaxPooling2 (None, 4, 6, 64)          0         
_________________________________________________________________
dropout_1 (Dropout)          (None, 4, 6, 64)          0         
_________________________________________________________________
flatten_1 (Flatten)          (None, 1536)              0         
_________________________________________________________________
dense_1 (Dense)              (None, 64)                98368     
_________________________________________________________________
dense_2 (Dense)              (None, 32)                2080      
_________________________________________________________________
dense_3 (Dense)              (None, 9)                 297       
=================================================================
Total params: 124,041
Trainable params: 124,041
Non-trainable params: 0
_________________________________________________________________
Train on 4224 samples, validate on 470 samples
Epoch 1/10
2019-03-14 11:09:28.723141: I tensorflow/core/platform/cpu_feature_guard.cc:140] Your CPU supports instructions that this TensorFlow binary was not compiled to use: AVX2 FMA
…
