(conda) abhishek@abhishek-sunny:~/Desktop/OrcaCNN-Demo/Method_2$ python model.py 
Using TensorFlow backend.
100%|██████████████████████████████████████| 4694/4694 [00:13<00:00, 354.32it/s]
_________________________________________________________________
Layer (type)                 Output Shape              Param #   
=================================================================
lstm_1 (LSTM)                (None, 9, 64)             19968     
_________________________________________________________________
lstm_2 (LSTM)                (None, 9, 64)             33024     
_________________________________________________________________
dropout_1 (Dropout)          (None, 9, 64)             0         
_________________________________________________________________
time_distributed_1 (TimeDist (None, 9, 32)             2080      
_________________________________________________________________
time_distributed_2 (TimeDist (None, 9, 16)             528       
_________________________________________________________________
time_distributed_3 (TimeDist (None, 9, 8)              136       
_________________________________________________________________
flatten_1 (Flatten)          (None, 72)                0         
_________________________________________________________________
dense_4 (Dense)              (None, 9)                 657       
=================================================================
Total params: 56,393
Trainable params: 56,393
Non-trainable params: 0
_________________________________________________________________
Epoch 1/10
2019-03-14 10:52:43.754365: I tensorflow/core/platform/cpu_feature_guard.cc:140] Your CPU supports instructions that this TensorFlow binary was not compiled to use: AVX2 FMA
   4/
…
